…
ength=20', seed=None, test_batch_size=None, test_interval=1, tol=0.5, train_eps_mul=1.0, verify=False, vol_reg=False, w_scale_cls=100, weight_decay=0, xiao_coeff=1e-05, xiao_reg=False)
INFO     14:56:01     Loading config file: config/mnist.crown-ibp.json
INFO     14:56:01     config: {"data": "MNIST", "seed": 100, "training_params": {"method": "robust", "batch_size": 128}, "bound_params": {"eps": 0.0, "bound_opts": {"relu": "adaptive", "exp": "clamp_constant"}, "bound_type": "CROWN-Optimized"}, "model": "resnet", "batch_size": 64}
INFO     14:56:02     Model structure: 
 DenseSequential(
  (0): Conv2d(1, 16, kernel_size=(3, 3), stride=(1, 1), padding=(3, 3))
  (1): ReLU()
  (2): Dense(
    (Ws): ModuleList(
      (0): Conv2d(16, 16, kernel_size=(3, 3), stride=(1, 1), padding=(1, 1))
    )
  )
  (3): ReLU()
  (4): Dense(
    (Ws): ModuleList(
      (0): Conv2d(16, 16, kernel_size=(1, 1), stride=(1, 1))
      (1): None
      (2): Conv2d(16, 16, kernel_size=(3, 3), stride=(1, 1), padding=(1, 1))
    )
  )
  (5): ReLU()
  (6): Dense(
    (Ws): ModuleList(
      (0): Conv2d(16, 16, kernel_size=(3, 3), stride=(1, 1), padding=(1, 1))
    )
  )
  (7): ReLU()
  (8): Dense(
    (Ws): ModuleList(
      (0): Conv2d(16, 16, kernel_size=(1, 1), stride=(1, 1))
      (1): None
      (2): Conv2d(16, 16, kernel_size=(3, 3), stride=(1, 1), padding=(1, 1))
    )
  )
  (9): ReLU()
  (10): Dense(
    (Ws): ModuleList(
      (0): Conv2d(16, 32, kernel_size=(4, 4), stride=(2, 2), padding=(1, 1))
    )
  )
  (11): ReLU()
  (12): Dense(
    (Ws): ModuleList(
      (0): Conv2d(16, 32, kernel_size=(2, 2), stride=(2, 2))
      (1): None
      (2): Conv2d(32, 32, kernel_size=(3, 3), stride=(1, 1), padding=(1, 1))
    )
  )
  (13): ReLU()
  (14): Dense(
    (Ws): ModuleList(
      (0): Conv2d(32, 64, kernel_size=(4, 4), stride=(2, 2), padding=(1, 1))
    )
  )
  (15): ReLU()
  (16): Dense(
    (Ws): ModuleList(
      (0): Conv2d(32, 64, kernel_size=(2, 2), stride=(2, 2))
      (1): None
      (2): Conv2d(64, 64, kernel_size=(3, 3), stride=(1, 1), padding=(1, 1))
    )
  )
  (17): ReLU()
  (18): Flatten(start_dim=1, end_dim=-1)
  (19): Linear(in_features=4096, out_features=1000, bias=True)
  (20): ReLU()
  (21): Linear(in_features=1000, out_features=256, bias=True)
)
Reinitialize 0.weight, std before 0.12814, std now 0.27070
Reinitialize 2.Ws.0.weight, std before 0.11594, std now 0.01721
Reinitialize 4.Ws.0.weight, std before 0.36127, std now 0.14884
Reinitialize 4.Ws.2.weight, std before 0.12368, std now 0.01768
Reinitialize 6.Ws.0.weight, std before 0.11871, std now 0.01781
Reinitialize 8.Ws.0.weight, std before 0.32829, std now 0.16277
…
